Backend/models/trained_models/gnn_model.pth (torch, 4657 bytes, 4 tensors)

conv1.bias f4 [16]
0	0xbe8de737	-0.27715465
1	0x3e75ca3f	0.24002932
2	0xbedcc91c	-0.43122184
3	0x3e03a4f0	0.12855887
4	0x3e874746	0.26421565
5	0x3e68d9ab	0.22739284
6	0xbe7da820	-0.24771166
7	0xbe7b05af	-0.24513887
8	0x3e2da2c9	0.16956629
9	0x3f5fa964	0.87367845
10	0xbe8a0326	-0.26955527
11	0x3f0c3938	0.5477481
12	0x3e0cd09a	0.1375145
13	0x3e8f6bf6	0.28012055
14	0xbe44daf2	-0.19224146
15	0x3e05179b	0.12997286

conv1.lin.weight f4 [16, 29]
0	0xbdca9bb1	-0.09892977
1	0xbe719768	-0.23592913
2	0x3e02943b	0.12751858
3	0x3eb117cb	0.34588465
4	0xbceadac4	-0.028668769
5	0xbe211ba1	-0.15733196
6	0xbdf0bf36	-0.117552206
7	0xbdfcb6a2	-0.12339522
8	0x3ddede02	0.108821884
9	0xbe8d806a	-0.27637035
10	0x3e002af6	0.12516388
11	0xbecddd28	-0.4020779
12	0xbe1d48f8	-0.15359867
13	0xbe823da3	-0.2543765
14	0xbd941404	-0.0723038
15	0x3d8d6b73	0.0690526
16	0x3e66e351	0.22547652
17	0x3e1b6496	0.15175089
18	0xbd1da2df	-0.038485404
19	0x3d001968	0.03127423
20	0x3d81372d	0.06309352
21	0xbdc9e27a	-0.0985765
22	0xbd7e209d	-0.06204282
23	0xbdf6695a	-0.12031813
24	0x3e2cba46	0.16867933
25	0xbe293833	-0.16525345
26	0x3e340467	0.17579804
27	0x3b930c7c	0.0044875722
28	0x3c036f7b	0.0080221845
29	0x3e1e63a1	0.15467693
30	0x3d024a68	0.03180924
31	0xbdb02cce	-0.08602296
32	0xbcdd6ce2	-0.027029458
33	0x3c231927	0.009954727
34	0xbe67e055	-0.2264417
35	0xbafd963f	-0.0019347145
36	0x3e935d67	0.28782198
37	0xbe15c7c6	-0.14626989
38	0x3e4b03df	0.19825695
39	0xbe90b426	-0.28262442
40	0x3f085fac	0.53270984
41	0xbeac0fc5	-0.3360578
42	0x3da9f3b8	0.08298439
43	0x3e1abe33	0.15111618
44	0xbdb25f4b	-0.08709582
45	0x3d72a9bf	0.059243914
46	0x3ba8c779	0.005150732
47	0x3c15b509	0.0091374
48	0xbc5b5a23	-0.0133881895
49	0x3e2b9023	0.16754203
50	0x3e2c3c6c	0.16819924
51	0x3dd56f56	0.10421626
52	0xbe4e4382	-0.2014294
53	0xbe654219	-0.22388496
54	0x3dbfc12f	0.09363019
55	0xbd94e001	-0.07269288
56	0xbe9c2602	-0.30497748
57	0xbe99a9c4	-0.30012333
58	0x3e8a13ab	0.2696813
59	0xbe64a771	-0.22329499
60	0x3e8a0a17	0.26960823
61	0x3d8d8684	0.069104224
62	0x3e1aa231	0.15100934
63	0xbdab49f5	-0.083637156
64	0x3e318eeb	0.17339675
65	0xbe886858	-0.26642108
66	0x3aa29640	0.0012404397
67	0xbeaa4e15	-0.33262697
68	0xbb3f7864	-0.0029216046
69	0xbe457fd4	-0.19287044
70	0xbd025332	-0.031817622
71	0xbe9ca75d	-0.30596438
72	0x3cd74c3a	0.026281465
73	0xbd820a8b	-0.06349667
74	0xbd85278b	-0.06501683
75	0x3dafc412	0.08582319
76	0x3ce79042	0.02826703
77	0xbe8f6e9d	-0.2801408
78	0x3d069453	0.032856297
79	0x3cac2309	0.0210128
80	0x3e7f1c2e	0.24913093
81	0x3e277c53	0.1635602
82	0x3cb4e9fa	0.022084225
83	0xbe9fbc89	-0.31198528
84	0x3e9c1ece	0.30492252
85	0xbee76eeb	-0.4520181
86	0x3ea35e0a	0.31907684
87	0xbe4cf8fa	-0.20016852
88	0x3e4f68c8	0.20254815
89	0x3f0034f9	0.5008083
90	0xbe88f081	-0.2674599
91	0x3e6ff721	0.23434116
92	0xbe45b190	-0.19306016
93	0xbceae5cb	-0.028674027
94	0xbb949631	-0.004534506
95	0xbd30072c	-0.04297559
96	0xbe0a4dbe	-0.13506219
97	0xbe6229cf	-0.22086261
98	0xbd05416e	-0.0325331
99	0x3ee454c5	0.44595924
100	0xbe11321c	-0.14179271
101	0x3e7d6447	0.24745284
102	0x3ec6fc08	0.3886416
103	0x3d0ae6e5	0.033911604
104	0x3d383717	0.044974413
105	0x3de6d1e8	0.11270505
106	0xbead024f	-0.33790824
107	0x3c289c6f	0.010291203
108	0x3ef7613c	0.4831637
109	0x3d95a20b	0.07306298
110	0x3ebef78a	0.37298232
111	0xbc9e66d8	-0.01933615
112	0x3d572ae7	0.05253115
113	0x3df34e1f	0.11880135
114	0xbe49d7db	-0.19711249
115	0xbec1d180	-0.37855148
116	0xbdc140ec	-0.09436211
117	0xbe700cf4	-0.23442441
118	0xbd9cdbfb	-0.076591454
119	0xbe131428	-0.14363158
120	0xbe5a975f	-0.21346806
121	0x3e8d38e0	0.27582455
122	0x3e13c6fd	0.14431377
123	0x3dc9644e	0.09833585
124	0xbcf1cea0	-0.029517472
125	0xbe284e6e	-0.16436169
126	0xbe57829e	-0.2104592
127	0x3e20fc21	0.1572118
128	0xbd6e9c60	-0.0582546
129	0x3def8696	0.11695592
130	0xbe97a11e	-0.2961511
131	0xbd124ef7	-0.035719838
132	0x3e8315d7	0.256026
133	0xbd947815	-0.07249466
134	0x3d0a8981	0.03382254
135	0xbec3a039	-0.38208178
136	0x3d0b0446	0.033939622
137	0xbede376e	-0.43401664
138	0x3e2bd43a	0.16780177
139	0x3eda5dc2	0.42649657
140	0x3dffe411	0.12494672
141	0x3e830748	0.25591493
142	0xbe2a7d00	-0.16649246
143	0x3b464e24	0.0030258978
144	0xbe8cf022	-0.27526957
145	0xbe3af492	-0.18257359
146	0x3c91fb74	0.017820098
147	0x3e1f4476	0.1555346
148	0xbed51901	-0.4162064
149	0x3e5d2176	0.21594796
150	0x3e2f10af	0.17096208
151	0xbd7fd679	-0.062460396
152	0x3d8173e0	0.063209295
153	0x3e44d4f5	0.19221862
154	0x3e9d9e21	0.30784705
155	0xbe6e9894	-0.23300391
156	0x3e62e9b5	0.22159465
157	0xbe489268	-0.195871
158	0xbe6c3f69	-0.23071064
159	0xbe9433d5	-0.28945795
160	0xbd0b68bf	-0.03403544
161	0x3d245edd	0.04012953
162	0xbd11ef9a	-0.035628892
163	0xbe29322e	-0.16523048
164	0x3e84f6e2	0.25969607
165	0xbea8fd00	-0.33005524
166	0xbeb8f43a	-0.3612383
167	0x3deebb68	0.11656839
168	0x3ba5795c	0.0050498676
169	0x3dd03e40	0.10168123
170	0xbe758d67	-0.23979722
171	0xbd7b8e99	-0.06141529
172	0x3dd2b6bc	0.1028876
173	0x3e091d7d	0.13390155
174	0x3c26d3d4	0.01018234
175	0xbd8fd055	-0.07022158
176	0xbd06f385	-0.032947082
177	0xbe2810b8	-0.16412628
178	0xbe86b605	-0.26310745
179	0x3cd13c81	0.025541546
180	0xbe744b21	-0.23856784
181	0x3c8fdfaa	0.017562706
182	0x3dddf6c0	0.108380795
183	0xbe0ffaf7	-0.14060579
184	0x3ab52a4c	0.001382181
185	0x3cb98a36	0.022648912
186	0xbe03813d	-0.12842269
187	0x3e32d05d	0.17462297
188	0xbc1df40d	-0.009640706
189	0x3dc7290f	0.09724628
190	0xbd395a39	-0.04525206
191	0x3e1b180a	0.15145889
192	0xbd127b5a	-0.03576217
193	0x3ea45d19	0.32102278
194	0x3cd66cb1	0.026174875
195	0xbc3e4ee5	-0.01161549
196	0x3d28f6df	0.04125106
197	0x3d6045fc	0.054754242
198	0x3d3283cd	0.043582726
199	0xbdea4c50	-0.11440337
200	0xbea0c93c	-0.3140353
201	0xbc9b3fd9	-0.018951343
202	0xbe1875d9	-0.14888705
203	0xbcc71334	-0.024301149
204	0x3e6dbbec	0.23216218
205	0xbd24e5ef	-0.040258344
206	0xbd078b42	-0.03309179
207	0x3db36885	0.0876017
208	0x3d8c98c0	0.06865072
209	0x3d44c7a4	0.048041955
210	0xbdae6d65	-0.08516959
211	0x3cd40250	0.025880009
212	0x3c346920	0.011011392
213	0x3dc89472	0.09793939
214	0x3d92b0a3	0.07162597
215	0xbdd5e2c8	-0.10443646
216	0xbeeb7734	-0.45989382
217	0x3cd5e5af	0.026110498
218	0x3e1baf0a	0.15203491
219	0xbe9af12a	-0.3026212
220	0x3e6b6d11	0.22990824
221	0xbd71b57c	-0.059010968
222	0x3e1a9011	0.1509402
223	0x3e333d25	0.17503794
224	0xbe0fc64c	-0.14040488
225	0x3e6cc0b9	0.23120393
226	0x3d7297e4	0.059226885
227	0x3d27a787	0.04093125
228	0xbdcb6894	-0.09932056
229	0x3e5edc31	0.21763684
230	0xbe6bc7cc	-0.23025435
231	0x3e361266	0.17780456
232	0xbe24f746	-0.16109952
233	0xbc269cb6	-0.010169199
234	0x3e89437e	0.26809305
235	0xbe08930f	-0.13337348
236	0x3e9c0919	0.3047569
237	0xba640bc6	-0.0008699264
238	0x3e9b1eaa	0.30296832
239	0x3e4baf78	0.19891155
240	0xbd96eab8	-0.07368988
241	0x3e591a14	0.21201354
242	0x3e5a46fb	0.2131614
243	0x3bff26b4	0.007786596
244	0x3e8b973b	0.27263817
245	0xbe0dcecb	-0.13848417
246	0x3e537fa9	0.20654167
247	0x3ef039b5	0.46919027
248	0xbe188d50	-0.14897656
249	0x3e4df7b1	0.20114018
250	0x3e991262	0.29896837
251	0x3d784772	0.06061501
252	0x3defffbc	0.11718699
253	0x3def3815	0.11680619
254	0x3d800f6e	0.06252943
255	0x3e843eec	0.25829256

conv2.bias f4 [2]
0	0x3ee6d789	0.45086315
1	0xbee6d789	-0.45086315

conv2.lin.weight f4 [2, 16]
0	0xbefc8aba	-0.4932459
1	0x3e76a72e	0.24087211
2	0xbf2bc73a	-0.6710087
3	0xbd4ec5f2	-0.050481744
4	0x3e870cb3	0.26376876
5	0xbc0c532b	-0.008564751
6	0xbdc57ffb	-0.09643551
7	0xbe211cf2	-0.15733698
8	0x3e18b6db	0.14913504
9	0xbe46ff99	-0.1943344
10	0xbd1c3f78	-0.038146466
11	0x3d7d4bb1	0.061839763
12	0x3e26b58b	0.1628019
13	0x3ec9af75	0.39391676
14	0xbe7038c5	-0.23459156
15	0x3ecb46d4	0.39702475
16	0xbec73d00	-0.38913727
17	0xbf01ac63	-0.50653666
18	0xbe8f3a74	-0.27974284
19	0xbea98108	-0.33106256
20	0xbecc4a21	-0.39900306
21	0xbee0ee75	-0.43931928
22	0xbcf22836	-0.02956019
23	0xbd2587ff	-0.0404129
24	0xbddecb73	-0.108786486
25	0xbf0f69a5	-0.56020576
26	0x3d448f6d	0.047988344
27	0xbeed0ca0	-0.46298695
28	0xbe8823c0	-0.26589775
29	0xbeca03e0	-0.3945608
30	0xbe1805a4	-0.14845902
31	0xbe3ea7df	-0.18618725
