Backend/models/trained_models/gnn_model.pth (torch, 4657 bytes, 4 tensors)

conv1.bias f4 [16]
0.45113593 0.2157053 0.06668566 0.41944045 0.07661213 -0.22351086 0.2270512 -0.33880392
0.3019533 0.45566395 0.071911365 -0.1945053 0.3275545 -0.26942107 0.1321424 -0.20040594
00000000: 4afb e63e dae1 5c3e 7e92 883d e6c0 d63e
00000010: d2e6 9c3d 08e0 64be 1c80 683e b577 adbe
00000020: 9f99 9a3e c94c e93e 4446 933d 662c 47be
00000030: 39b5 a73e 8ff1 89be 5650 073e 3737 4dbe

conv1.lin.weight f4 [16, 29]
0.56070596 0.38518035 0.42769292 -0.49149603 0.28085923 0.17234552 0.13425544 -0.030459514
0.060544915 -0.04534095 -0.11245647 0.09245447 -0.104239434 0.07408509 0.023374798 -0.09596722
0.03368472 0.1537596 -0.041006256 -0.09874242 -0.1176784 0.09753137 -0.07712307 0.0244023
0.13200268 0.36877236 -0.39131248 -0.07048507 -0.23087418 -0.08098968 0.53895277 0.08455765
-0.032533728 -0.0012856056 -0.27903923 0.18678714 0.14779069 0.32268077 -0.0036533605 0.09409408
0.29024413 -0.102677904 0.50608116 -0.20573051 -0.027345385 0.07705193 0.56892633 0.12142897
-0.070269406 -0.13999067 0.11443487 0.24206392 -0.5244198 -0.35112396 -0.30006352 -0.2203763
0.024321377 -0.29151782 -0.050851468 -0.27318472 -0.00631986 -0.41855183 0.026578367 -0.2740747
-0.061558314 -0.061913442 0.34843642 0.081714615 -0.28554636 -0.35611743 0.054144833 0.5103926
0.015574347 0.19311382 0.07520628 -0.24828205 0.16888362 0.021703005 0.26430514 0.33369854
0.18373586 0.23622899 0.36006483 0.19249073 -0.44796896 -0.1826309 -0.23816712 0.020490348
-0.19670637 -0.2534279 -0.35786396 -0.024947967 0.05509009 -0.10822243 0.008541686 -0.019738503
0.014086205 -0.09820901 0.1368286 -0.36168975 0.41729584 -0.40784687 0.45764753 -0.05099805
0.13057408 -0.30250823 -0.06886822 0.019679103 -0.28099528 0.3157712 -0.17083071 0.2581379
0.29471835 0.1657057 -0.19396628 0.03890255 -0.3337492 -0.12144429 0.4771487 -0.28497297
0.080992274 0.2534516 0.29887515 0.29354173 -0.1816477 0.08631376 0.12301838 0.095648706
0.3815214 -0.09015152 -0.27699775 0.25620642 0.24722676 -0.4177387 -0.020414013 0.17750485
-0.06348439 -0.10631665 -0.22313422 0.2413154 0.25652063 0.40621457 0.029986918 0.16135596
0.11501925 0.111668974 0.046316978 -0.004124605 -0.109170005 0.006808869 -0.14706132 -0.096590154
-0.059669644 0.087460965 -0.17759135 0.05547941 -0.08996391 -0.040894784 -0.03408917 -0.07813495
-0.11158645 0.015745144 0.060126215 -0.17856975 0.22835104 0.0970962 -0.16316581 0.011326114
-0.115240626 0.11240398 -0.2795904 0.06713438 0.20469695 0.033122923 -0.025674708 -0.11787557
-0.06475662 -0.0738505 -0.046748977 -0.029599778 0.102643676 0.37435362 0.119197294 0.35299817
-0.16579995 0.44404155 -0.04871413 -0.1159347 0.40899613 0.016103098 -0.039487768 0.17535686
-0.32560885 -0.21425347 -0.16361462 -0.017379558 0.20021762 -0.13920441 -0.5026012 0.09992499
0.16993907 -0.40043584 -0.33911696 0.28622976 -0.2588106 0.24561407 0.07655884 0.12526199
-0.027904037 0.19636036 -0.26314807 -0.0034762197 -0.29861042 0.04089118 -0.23416448 -0.048453424
-0.26578462 0.07278943 -0.0690151 -0.13031478 0.13636959 0.02243001 -0.15694128 0.15677164
-0.012417331 0.20973115 0.09068604 0.02709104 -0.21309136 0.3069238 -0.35456643 0.14312138
0.43575588 -0.3331623 0.28359628 -0.00691323 -0.0984254 -0.10641538 0.31583494 0.04815295
0.28706726 0.44262028 -0.21051602 0.093809195 -0.21013148 0.11800883 -0.003712759 -0.13648167
0.14811665 -0.32378894 -0.17263259 0.20675823 0.018102845 0.008396637 -0.010513104 0.10953843
00000000: 6d8a 0f3f 5c36 c53e 91fa da3e 5ea5 fbbe
00000010: c8cc 8f3e 587b 303e 427a 093e 3b86 f9bc
00000020: f2fd 773d 6fb7 39bd 944f e6bd c558 bd3d
00000030: 7c7b d5bd ecb9 973d 817c bf3c 768a c4bd
00000040: fdf8 093d 2873 1d3e 2df6 27bd 7739 cabd
00000050: 5f01 f1bd 87be c73d b3f2 9dbd 55e7 c73c
00000060: b62b 073e bbcf bc3e 1c5a c8be 7a5a 90bd
00000070: 486a 6cbe ebdd a5bd cff8 093f 902c ad3d
00000080: 1642 05bd c481 a8ba 3bde 8ebe 2145 3f3e
00000090: 7156 173e 6a36 a53e 386d 6fbb 66b4 c03d
000000a0: e19a 943e cb48 d2bd 898e 013f 05ab 52be
000000b0: 6e03 e0bc 67cd 9d3d 28a5 113f c0af f83d
000000c0: 68e9 8fbd b759 0fbe d45c ea3d 9bdf 773e
000000d0: 6040 06bf 85c6 b3be eda1 99be 53aa 61be
000000e0: a03d c73c d341 95be a149 50bd dede 8bbe
000000f0: d416 cfbb 6d4c d6be e0ba d93c 8553 8cbe
00000100: 9224 7cbd f398 7dbd 4266 b23e fe59 a73d
00000110: 2233 92be 0655 b6be f9c6 5d3d 17a9 023f
00000120: 8c2b 7f3c a1bf 453e c005 9a3d a63d 7ebe
00000130: d4ef 2c3e 80ca b13c 0153 873e 89da aa3e
00000140: 4125 3c3e 03e6 713e 6b5a b83e 4a1c 453e
00000150: 305c e5be 9803 3bbe 15e2 73be 60db a73c
00000160: 656d 49be 4dc1 81be f239 b7be ae5f ccbc
00000170: 25a6 613d b9a3 ddbd 6ef2 0b3c a4b2 a1bc
00000180: d3c9 663c ce21 c9bd cc1c 0c3e 662f b9be
00000190: cda7 d53e 4ed1 d0be c750 ea3e 55e3 50bd
000001a0: 36b5 053e 5ce2 9abe c80a 8dbd 1236 a13c
000001b0: 9dde 8fbe c3ac a13e 3fee 2ebe a72a 843e
000001c0: 53e5 963e c1ae 293e 199f 46be 4858 1f3d
000001d0: 2de1 aabe c9b7 f8bd d64c f43e fae7 91be
000001e0: 47df a53d 68c4 813e 2a06 993e 1a4b 963e
000001f0: db01 3abe 45c5 b03d 0ff1 fb3d 78e3 c33d
00000200: c656 c33e 5ca1 b8bd a6d2 8dbe 7d2d 833e
00000210: 0329 7d3e d9e1 d5be 4a3b a7bc d5c3 353e
00000220: 1b04 82bd 8bbc d9bd 4c7d 64be 621b 773e
00000230: ac56 833e 5bfb cf3e 20a7 f53c 7f3a 253e
00000240: 368f eb3d b4b2 e43d dfb6 3d3d b227 87bb
00000250: 8694 dfbd ef1c df3b 3e97 16be 0fd1 c5bd
00000260: 2868 74bd bc1e b33d 82da 35be 613e 633d
00000270: 003f b8bd 4a81 27bd 16a1 0bbd 3705 a0bd
00000280: 7087 e4bd f6fb 803c e846 763d fdda 36be
00000290: dbd4 693e 5fda c63d f014 27be 2a91 393c
000002a0: 4703 ecbd 0f34 e63d 7926 8fbe c07d 893d
000002b0: 149c 513e e7ab 073d c453 d2bc bf68 f1bd
000002c0: 1e9f 84bd ee3e 97bd db7b 3fbd 3c7b f2bc
000002d0: d936 d23d 47ab bf3e b61d f43d 2dbc b43e
000002e0: 76c7 29be 6a59 e33e 7888 47bd 2c6f edbd
000002f0: f167 d13e a5ea 833c edbd 21bd c090 333e
00000300: 34b6 a6be 4365 5bbe 978a 27be 935f 8ebc
00000310: d905 4d3e 9a8b 0ebe 79aa 00bf 79a5 cc3d
00000320: 8204 2e3e ed05 cdbe bda0 adbe b58c 923e
00000330: d382 84be 4182 7b3e e2ca 9c3d ae44 003e
00000340: 0297 e4bc b112 493e 58bb 86be 4ad1 63bb
00000350: 77e3 98be 837d 273d d0c8 6fbe 1977 46bd
00000360: ec14 88be a012 953d ca57 8dbd 3d71 05be
00000370: 78a4 0b3e 24bf b73c 37b5 20be bf88 203e
00000380: 1072 4bbc c3c3 563e 9ab9 b93d 07ee dd3c
00000390: 9f34 5abe 1e25 9d3e bb89 b5be 698e 123e
000003a0: 651b df3e 4094 aabe 8833 913e 6088 e2bb
000003b0: 4293 c9bd 4ff0 d9bd 1eb5 a13e 073c 453d
000003c0: 7bfa 923e 209f e23e 8391 57be 091f c03d
000003d0: b52c 57be 9dae f13d c251 73bb dac1 0bbe
000003e0: e4ab 173e aac7 a5be 99c6 30be 6eb8 533e
000003f0: 6b4c 943c 0c92 093c 273f 2cbc af55 e03d

conv2.bias f4 [2]
0.31292728 -0.31292728
00000000: 0138 a03e 0138 a0be

conv2.lin.weight f4 [2, 16]
0.7423142 0.5602391 -0.09982657 0.75041914 -0.27400845 0.0033272207 0.4575833 0.17477544
-0.08308366 -0.1007389 0.37544975 0.22891735 -0.19267063 -0.16526468 0.42515343 0.13776623
0.27716616 0.019611474 -0.50536674 0.20326874 -0.6968417 0.32218984 -0.15360627 0.48671168
-0.5125394 -0.5967488 -0.052533895 0.3507533 -0.6247098 0.111573465 -0.24173054 0.27728316
00000000: 4e08 3e3f d46b 0f3f df71 ccbd 781b 403f
00000010: d64a 8cbe 800d 5a3b 5c48 ea3e 55f8 323e
00000020: c427 aabd 3250 cebd f33a c03e 4f69 6a3e
00000030: 734b 45be 253b 29be b6ad d93e 9712 0d3e
00000040: b9e8 8d3e 3ea8 a03c b75f 01bf ae25 503e
00000050: 3864 32bf 11f6 a43e f64a 1dbe 4632 f93e
00000060: c835 03bf 88c4 18bf c82d 57bd f095 b33e
00000070: fbec 1fbf a180 e43d 3688 77be 0ff8 8d3e
