Backend/models/trained_models/gnn_model.pth (torch, 4657 bytes, 4 tensors)

conv1.bias f4 [16]
000000 da 3b cf 3e 05 c0 f1 3e fe f6 82 be 80 a8 78 3e
       0.4047535 0.47216812 -0.25579065 0.24283028
000010 ab 3b b1 3e d3 75 27 3f 79 fa 42 be fd fa 5d 3e
       0.34615836 0.6541416 -0.1904086 0.21677776
000020 2e a7 94 3e 83 93 d8 3e cd 6f fe 3d da 1b 0a bf
       0.29033798 0.42300043 0.12423668 -0.5394875
000030 3f f6 7a 3e 0c f8 bc 3e 00 22 77 be 5c 61 1b 3f
       0.24507998 0.36907995 -0.24134064 0.60695434

conv1.lin.weight f4 [16, 29]
000000 29 01 1f 3d 3a 7c d8 be 98 50 13 be fa 94 30 be
       0.038819466 -0.42282277 -0.14386213 -0.1724433
000010 e8 29 06 3e 61 7b 66 3d 31 e9 94 3e fa 34 7b bd
       0.13101923 0.056270007 0.2908416 -0.06132982
000020 60 8f 5c 3e 3f f2 89 3e 97 6c 8f be ae ab 09 bd
       0.21539068 0.26942632 -0.28012535 -0.033610992
000030 2f a4 12 be 8b 6f 02 3e 77 8e 0b be c1 06 fa 3d
       -0.14320444 0.12737863 -0.13628565 0.122083195
000040 4c a2 c5 3d 6b e5 94 be 21 93 a9 be 2e c9 9f 3e
       0.09650096 -0.29081282 -0.33120063 0.31208175
000050 84 bf 38 be 8c a8 c6 3d 70 3d 7a 3d 58 b8 94 bd
       -0.18041807 0.097001165 0.061093748 -0.07261723
000060 8a d5 17 bd cc 88 49 3e 8d db f6 bc 56 06 e9 3c
       -0.03706888 0.1968109 -0.030133987 0.028445404
000070 d1 38 c7 be 5a 54 6c bd 27 23 13 be cc 82 c7 3e
       -0.38910535 -0.05769763 -0.14368878 0.38966978
000080 f4 22 93 be 79 ce c0 bc ae 08 b4 3d 77 0a e2 3d
       -0.28737605 -0.023535954 0.08790718 0.11037152
000090 b5 5b 28 bc 43 bf 00 bd 5b b6 04 3e fb 8a 62 3d
       -0.010275771 -0.0314324 0.12960188 0.055308323
0000a0 bc eb 30 3e 6e 4e 92 3e 40 13 8e 3b 26 5e ac be
       0.17277426 0.28575462 0.004335791 -0.3366558
0000b0 a3 fc 8f 3e 08 c7 1f 3b 1d af c6 bd 85 63 8a 3d
       0.28122434 0.0024380106 -0.09701369 0.06757263
0000c0 09 62 cc bd 2d a6 12 3e a6 b5 2e be e0 f9 bb bd
       -0.09979636 0.14321204 -0.17061481 -0.09178519
0000d0 0b 89 09 3e 18 17 73 3e 26 4e b1 3e 45 6c a2 3d
       0.13431184 0.23739278 0.34629935 0.07930807
0000e0 00 bf 87 3d 93 20 1e 3e 07 3c aa bd d7 71 bd bc
       0.06628227 0.15442114 -0.083122306 -0.023125572
0000f0 4c ab 26 bd 53 6e 19 3d f2 bb e1 3c 7e 46 8e bc
       -0.040690705 0.03745873 0.02755544 -0.017367598
000100 81 70 46 be 8b c7 00 3d ab 24 c2 3d 5c ed d3 3d
       -0.19378854 0.0314403 0.0947965 0.10348007
000110 47 8f 83 bd b5 37 38 bd a5 da f9 bd 7b 54 e5 3d
       -0.06423812 -0.044975 -0.12199906 0.11197754
000120 95 c7 51 bd 98 78 ef 3b 03 1c a9 3c 9d ae b5 bd
       -0.051215727 0.007308077 0.02064324 -0.088711955
000130 f8 49 c1 3d 3e 3a b7 bc d2 a6 18 bc 45 91 c5 3d
       0.094379365 -0.02236664 -0.009317117 0.096468486
000140 32 96 5e bd a7 77 1e be f8 8e 51 bb 0b 37 2e 3e
       -0.054342456 -0.15475331 -0.0031976085 0.17013185
000150 43 18 2c be e8 f7 33 be 64 52 0b bd b8 9e 08 3e
       -0.1680613 -0.17575037 -0.03401412 0.13341796
000160 a1 ae 35 3d 26 bd 16 bd 78 56 bb be 1a 9e 07 3e
       0.044355992 -0.03680148 -0.36589408 0.13243905
000170 1e 5b da be 02 b4 da bc 98 04 a7 3b 69 74 26 bd
       -0.42647642 -0.026697163 0.005096983 -0.04063836
000180 cf 6b 2d 3e 54 74 8a 3d 4e 2e ab 3e 0d 92 91 be
       0.16935657 0.06760469 0.33433765 -0.2843174
000190 95 25 7f 3e a6 bf e1 be 95 04 5a 3c f5 6b 5c be
       0.2491668 -0.4409153 0.0133067565 -0.21525557
0001a0 d5 db 05 3f c8 5b 92 ba cf a5 f9 bd 03 9c 44 3e
       0.5228856 -0.0011166269 -0.121898286 0.19200139
0001b0 7e 6d de 3c 4d 7d c8 3e fb bc b8 be 12 c2 98 3e
       0.02715182 0.39158097 -0.3608168 0.29835564
0001c0 04 9f 1f 3e 81 35 dc 3c 16 1f b4 3c ee 31 83 3c
       0.15588003 0.026880981 0.02198748 0.01601502
0001d0 05 a9 15 3e 55 ca b3 3e 2d bf 91 3d 46 e9 35 bc
       0.14615257 0.35115305 0.07116542 -0.01110298
0001e0 1f bb 23 be d3 ff 0e bf 29 e9 0f 3e f5 b1 3c bd
       -0.1598935 -0.55859107 0.14053787 -0.04606815
0001f0 3d 36 8e 3d 3d 4a 1c 3e 99 47 ff bd 30 11 6f 3e
       0.06943939 0.15262695 -0.12464828 0.233464
000200 9c 0e 62 bd 9d 5e b2 3e ce 90 3f be 00 f7 54 bd
       -0.055189714 0.3483781 -0.18707582 -0.05199337
000210 a5 89 9b bd 85 50 28 3f 7f db 85 3e 00 71 a1 3d
       -0.07594613 0.65747863 0.26144025 0.07882881
000220 55 dd 45 bd 8e df b0 3d 6e 06 06 3d 7a 40 8d bd
       -0.04830678 0.0863639 0.032720976 -0.068970636
000230 a7 fe 18 be fb 2f e0 bd 44 a4 1e be f3 4b 18 be
       -0.14940892 -0.109466515 -0.1549235 -0.14872722
000240 ff 1e 96 be 9a cb b3 3e e0 81 5f be dc ad e9 bd
       -0.29320523 0.35116273 -0.21826887 -0.11410114
000250 e7 38 42 3d 61 b5 df bd 85 97 bd be 3f 69 03 be
       0.047417548 -0.10923267 -0.37029663 -0.12833117
000260 e0 9a 33 3b 94 6a ab bc 83 a3 55 3e b8 00 b3 be
       0.0027405545 -0.020924844 0.20863156 -0.34961486
000270 eb 0f 3a 3e eb 7f ca bd 4f 6f a7 3e 39 7f 3a 3e
       0.18170135 -0.0988768 0.3270211 0.18212594
000280 47 1c 49 3d 80 0d 17 bd d9 f9 29 bd 8e 82 57 be
       0.049099233 -0.03687811 -0.04149804 -0.21045896
000290 2d 8e 4e 3c 11 44 9c bd 59 2a 8e bd 6f e5 8f 3e
       0.01260714 -0.0763017 -0.06941671 0.2810473
0002a0 ed 31 a5 bd b0 73 78 be ca 51 50 3e 59 fd e0 bd
       -0.08066163 -0.24262881 0.203437 -0.10985822
0002b0 7d 49 3e be cf 76 5d be 30 8d b0 3d 57 85 ce 3c
       -0.18582721 -0.21627353 0.086206794 0.025210066
0002c0 64 e2 82 bd cf 1d 96 3c 18 67 44 3c 39 3e de bd
       -0.06390837 0.01832476 0.01198747 -0.10851712
0002d0 42 4c 89 bd 27 5a 45 be 90 b8 3e 3e a8 eb 0d be
       -0.06703998 -0.19272672 0.18625093 -0.13859427
0002e0 61 aa 67 3e 17 b9 8a be 13 1a 0a be a7 23 87 be
       0.22623588 -0.27094337 -0.13486509 -0.26394388
0002f0 e8 25 c4 3d 7a a3 42 be 3a 12 be 3d 81 4e d4 3d
       0.095775425 -0.19007674 0.0928082 0.10366536
000300 da 71 0b 3e 12 6b 09 3e bf be 55 3d 6e 05 25 be
       0.1361765 0.1341975 0.052183863 -0.16115353
000310 d4 bd ab 3e 7b 55 39 bd d7 ac 39 3e 80 30 2b be
       0.33543265 -0.045247536 0.1813234 -0.1671772
000320 b0 62 c8 3e 36 78 83 3d 44 58 7b 3e b2 97 7f bd
       0.39137793 0.06419413 0.2454539 -0.062400527
000330 a5 e5 6f be 64 20 86 3e 5d df 55 bd f2 b3 6e bb
       -0.23427446 0.26196587 -0.05221497 -0.0036423174
000340 cf ef be 3e 75 d4 b4 3c 6c f0 97 3e 12 03 91 3e
       0.37292334 0.022073964 0.29675615 0.28322655
000350 80 4d 2b 3e 0e b0 be 3d b3 61 77 3e dd 05 f5 bc
       0.16728783 0.093109235 0.24158363 -0.029910022
000360 82 f0 2a 3d 88 e0 7e 3e 64 5c a4 3e 4e 5c 03 3e
       0.041733272 0.2489034 0.32101738 0.1282818
000370 4e 16 be be a0 7d 2a be 74 c5 87 3c 58 70 84 be
       -0.37126392 -0.16649485 0.016573645 -0.2586696
000380 76 70 15 bf b4 49 8d 3d 41 f7 d4 ba f8 cb 94 bd
       -0.58374727 0.068988234 -0.0016248004 -0.072654665
000390 69 7f d1 be ed a5 a9 3d c1 62 6c bd 90 44 e4 bd
       -0.4091752 0.08283601 -0.057711367 -0.1114589
0003a0 cf 44 a6 3e 73 1d 2a 3f 9f b0 0e 3d 37 01 19 be
       0.32474372 0.66451186 0.034836408 -0.1494187
0003b0 38 8b 34 be 7a 4e 99 be f1 70 31 3e a9 1f be 3e
       -0.17631233 -0.29942685 0.1732824 0.3713353
0003c0 8a 19 74 3e 2f 53 8c 3e 83 63 e8 bd ef 53 82 3e
       0.23837867 0.27407214 -0.11347105 0.2545466
0003d0 32 cd 98 3a 52 41 9b 3e 19 ee e5 3c 7e e8 03 3d
       0.0011657833 0.30323273 0.028067635 0.032204144
0003e0 69 c3 90 3e ac b9 00 3d aa 6e 4c 3e 0e 5b 83 3b
       0.28274086 0.03142707 0.1996409 0.0040086573
0003f0 bd 35 83 3e de ea a5 3e 37 01 06 bd d8 79 c2 be
       0.25626937 0.32405752 -0.032716002 -0.37983584

conv2.bias f4 [2]
000000 8a 5f 65 3e 8a 5f 65 be
       0.22399727 -0.22399727

conv2.lin.weight f4 [2, 16]
000000 a1 f1 76 3d 40 4f 97 3e ec 1a f9 bd b5 54 fc 3d
       0.06028903 0.2955265 -0.12163338 0.12320844
000010 30 23 2a be c4 ff 98 be d1 2a 64 be fe 79 b8 3e
       -0.16614985 -0.29882634 -0.22281958 0.36030573
000020 7e 47 d6 3d 8a bb a8 3e f3 dd 26 3f 4c fc c8 be
       0.10462855 0.3295558 0.6518242 -0.39254987
000030 ae 19 6e 3e 31 0c c0 3e 04 3b 32 be 44 8b d4 3e
       0.23251984 0.375093 -0.17405325 0.415125
000040 7e d1 c9 be 19 f5 23 be 4c 08 fe 3d 23 2b c3 be
       -0.39417642 -0.16011466 0.12403926 -0.38118848
000050 6d 82 31 bf c1 f8 1d bf 9b 47 cc bd d3 5d 63 be
       -0.6933964 -0.61707693 -0.09974595 -0.2220376
000060 bb 3c e7 be fc 7f c3 bd 70 f6 1d 3e a0 ef ec bd
       -0.4516352 -0.095458955 0.1542604 -0.11569142
000070 48 fd 8f be 87 59 17 be 12 33 95 bd 28 45 10 bd
       -0.28122926 -0.14780246 -0.072851315 -0.035222203
