Backend/models/trained_models/gnn_model.pth (torch, 4657 bytes, 4 tensors)

conv1.bias f4 [16]
00000000: 44f2 9d3e 700d b73e 5320 5b3e a3df 5abe
00000010: f790 58be 0cfd 993d 8440 d33e 66af 293f
00000020: 68fe 813e ba4e 233e ffb6 573e 5caf 9bbc
00000030: ebf9 7cbe 4797 8abe 9954 6b3e 5359 41be
0.30848897 0.3575244 0.2139905 -0.21374373 -0.2114905 0.07518968 0.4126016 0.6628326
0.2538941 0.15948 0.21065901 -0.019004516 -0.24704711 -0.2706854 0.2298149 -0.1888173

conv1.lin.weight f4 [16, 29]
00000000: 35a4 853e d374 ccbd 7bc0 103e a7c2 4dbe
00000010: 7b37 b33e 158c a3be 7561 f9bc 932d d03c
00000020: 2170 9f3e 11e3 df3d 332d 2bbe 574d 0c3d
00000030: bb02 2ebe e301 513e 7258 393e 89f9 aa3d
00000040: 0455 4abd 6d28 6d3e 12b7 91be 9f90 e6bd
00000050: 1e00 1ebe 6be7 e13d e3d5 ea3e a1d3 14be
00000060: 7d0b 71be abac cf3d ab33 26be a71c f9be
00000070: dde2 aebe 090c 073e 9fa8 57be 466d ecbc
00000080: fa3d d83d d43d a1bd 11ca 1a3e 1fea 8bbd
00000090: 7793 a33e 2bd0 8ebe 02d5 4b3e 4b8c afbe
000000a0: 7bea 1a3f a28c 42bd 530c 1d3e e4d2 703e
000000b0: 33f2 863a 8d98 463e debb 82be 64db 8cbb
000000c0: 1cc7 90be 1f98 af3e 7f2d b6be 45bc f73d
000000d0: 2eb2 5e3e 3aa7 483e a5d6 303e 0916 4a3b
000000e0: 480c d7be 9cf6 ee3c 3627 a83d 5dfc ebbb
000000f0: 6bcf 113d 2497 d4be 2c61 773e b571 183e
00000100: 772d ac3d b5f0 013c e382 15be 5b36 7dbe
00000110: 2541 dfbd e9d8 8d3e 6f74 e63d a997 103e
00000120: 3baa 52be 01b4 053e e5df 373d a3ec f03e
00000130: dce2 233e a955 bbbe b018 2fbe eaa0 2abe
00000140: 8f45 203e 6524 663e 18cd 8ebe 8757 7d3e
00000150: 5e0c 89bd fec2 0ebb d2fe c0bd 89f7 033d
00000160: ea82 b93d 9336 60bd abfa 18bc 5221 14be
00000170: 9851 99bd 78f9 fa3d 7438 fabd 2a77 2b3e
00000180: cdb1 9ebe 27ff af3d cc45 ffbd 1fce d0bd
00000190: 8ece 50bd 00fc 443d a730 f0bd 458d c8bc
000001a0: 77cf 283e 38f7 f5bd ba21 213e 21b1 983c
000001b0: 0dee 88bc 2651 7d3e 0f8f aebd 7f1c 033e
000001c0: 18c4 a1be 7cc4 1a3e a141 333e a02c 753d
000001d0: bed6 4abd 5ad1 e3bc f834 b7bc bd20 fc3d
000001e0: f6b4 18bd 37f8 a9bd 886b 783d 838a 27be
000001f0: f327 c03d 0ca7 68be c406 613c e4de b0bd
00000200: 6600 edb9 23c6 fdbd 2da9 a2bd e08b 533d
00000210: 19f4 d5bd 88fd 923d 5fb3 3fbe cc43 a83d
00000220: c885 b43d 788e 98bd a1d3 c3bd b89e bfbd
00000230: fd0f 753d c4a7 55be cb3c 7c3e ec97 ba3d
00000240: 1c71 c5bd fb74 99be 57fb be3e d9d6 4e3e
00000250: f370 3dbe b481 07be eb0c 013f 3d0e 803e
00000260: 7e00 2e3e 352b 803e 7c3e bebc c92e 203e
00000270: c377 863e 73da d83c 4b94 1e3e e1c8 823c
00000280: 34b4 f53e d1fe 2b3e e84e 9a3c 9258 3b3c
00000290: 9f99 8bbe a829 54be b484 6dbe 9a3c 413e
000002a0: 6b11 81be 9c4b 37be ace4 d5be 2d6f 493e
000002b0: e35b 313d 8d8f 81be fd46 cf3e 8b49 e9be
000002c0: 2a87 1c3e 86ed 77be 43dc 583e c368 4a3d
000002d0: d883 473e 4c81 163d 7514 8e3e 3c61 763e
000002e0: 18af f4bd 452b 13bd ccb7 6dbe 71c3 593d
000002f0: edcd 703d e629 393e f466 04be 9e9a 86be
00000300: df40 f6be 6505 2c3e 2a36 e0bd 8cf8 5cbd
00000310: 0734 043e 5550 6dbe 76ca 31bd 8961 853e
00000320: 19fa 8fbe d965 79bd 2a04 94ba 1144 0fbd
00000330: 5e49 463e d8b8 fa3c 5193 90be d443 5e3d
00000340: cb63 e9be 8660 62bd bcfc 8c3d 46a5 7f3e
00000350: d887 113e a52d 92be f77c 17bd 9844 7abd
00000360: f506 9b3e be04 39be 3863 0cbd 4316 863d
00000370: b342 de3e 1428 613e fcc8 453e c7cb b6bd
00000380: 4627 403e 104c 493e 9454 0d3f 0d89 f73d
00000390: 5892 24bd a75c 70be 97dd 94bd 5f26 5cbe
000003a0: 876e 8c3d b352 783e 4d31 79bd 1c07 3bbe
000003b0: 0062 313e 883a 63be e6ef 583e cadb ca3e
000003c0: 3ada c33e 8acc 243e f481 2e3d ed94 fa3d
000003d0: 66a0 093d c6e6 563e 96e6 513e 48e3 2b3e
000003e0: ef6a 273e a19c 6dbe ae15 2a3e bc1c a9be
000003f0: 203d b73d fd1f 0b3e 89e6 963e fc9a c7be
0.26101843 -0.0998322 0.14135925 -0.20093785 0.35003266 -0.31942812 -0.030441979 0.025412356
0.31140235 0.10931981 -0.16716461 0.034253445 -0.16993229 0.20410876 0.18100145 0.08348376
-0.049397483 0.23159952 -0.28459984 -0.11258053 -0.15429732 0.110304676 0.45866308 -0.14533855
-0.23539539 0.10140356 -0.16230647 -0.48654673 -0.34157458 0.13188185 -0.21060418 -0.0288607
0.10558696 -0.07873121 0.15116145 -0.068317644 0.31948444 -0.27893195 0.19905475 -0.34286723
0.6051404 -0.0474974 0.15336733 0.23517948 0.001029557 0.19394131 -0.25533956 -0.0042986143
-0.28276908 0.34295747 -0.35581586 0.120964564 0.21747658 0.19595042 0.1726938 0.0030835888
-0.42001557 0.029170327 0.08210604 -0.007201715 0.0355982 -0.4152156 0.24158162 0.14887126
0.08407109 0.007930924 -0.1460071 -0.24727766 -0.10901097 0.27704552 0.11252677 0.14120354
-0.2057275 0.13056947 0.044891257 0.4705554 0.16004509 -0.3658879 -0.17099261 -0.16662946
0.15651534 0.22474821 -0.2789085 0.2474042 -0.06691812 -0.0021783705 -0.09423603 0.03221849
0.09058173 -0.054739546 -0.009337108 -0.14465836 -0.07486266 0.12254614 -0.12217799 0.16744676
-0.30995026 0.08593588 -0.124644846 -0.101955645 -0.050978236 0.04809189 -0.1172803 -0.024481425
0.16485392 -0.12010044 0.15735522 0.01863915 -0.016715074 0.24737987 -0.0852338 0.12803839
-0.3159492 0.15114015 0.17505504 0.05985701 -0.0495212 -0.027809788 -0.022364125 0.12310932
-0.037281953 -0.08299296 0.060649425 -0.16361432 0.0938262 -0.22719973 0.013734523 -0.08636263
-0.0004520446 -0.12391307 -0.07942424 0.051647067 -0.104469486 0.071772635 -0.18720768 0.08216056
0.08814579 -0.07449049 -0.095618494 -0.09356445 0.0598297 -0.20864779 0.24632566 0.09111008
-0.096407145 -0.29972062 0.37301132 0.20199145 -0.18500118 -0.13233072 0.50410336 0.25010863
0.16992375 0.25032964 -0.023223154 0.15642847 0.26263246 0.026471352 0.15486257 0.015964927
0.47989047 0.16796423 0.018836454 0.011434691 -0.2726564 -0.20719016 -0.23195153 0.18870774
-0.252086 -0.17899936 -0.41776025 0.19671316 0.04330052 -0.25304833 0.40483847 -0.4556392
0.15285936 -0.24211702 0.21177773 0.049416315 0.19483888 0.0367444 0.27749982 0.2406053
-0.11947459 -0.035929937 -0.23214644 0.053164903 0.058790136 0.18082389 -0.12929899 -0.2628984
-0.48096368 0.16798933 -0.10947831 -0.05394797 0.12910472 -0.23175175 -0.043405972 0.26050976
-0.28120497 -0.060888145 -0.0011292745 -0.034977023 0.19363925 0.030605718 -0.28237393 0.054263905
-0.45583948 -0.055267833 0.06884143 0.2496539 0.14211977 -0.2855045 -0.03698441 -0.061100572
0.30278745 -0.18068215 -0.03427431 0.06547215 0.43410262 0.21987945 0.1931495 -0.08925586
0.18764982 0.19657922 0.5520718 0.12086687 -0.040178627 -0.23472844 -0.072688274 -0.21499012
0.06857019 0.24250297 -0.060838033 -0.18264431 0.1732254 -0.22190297 0.21185264 0.3962081
0.3825243 0.1609365 0.0426044 0.122354366 0.033600233 0.2098647 0.20498118 0.1678592
0.16349386 -0.2320428 0.16609833 -0.33029735 0.089472055 0.13586421 0.2947276 -0.3898543

conv2.bias f4 [2]
00000000: d7bd a03e d8bd a0be
0.31394836 -0.3139484

conv2.lin.weight f4 [2, 16]
00000000: 8498 8d3d 90c8 8f3e 6623 8d3e 804f 073e
00000010: fd9d 473e 45e3 cc3e 48cf 1e3f d492 343e
00000020: 1ab3 5d3e 3599 8f3e df0d 81bd 6257 c73e
00000030: 6497 bbbe a04e abbe 8193 b43e 11e3 3fbe
00000040: 14c0 06bf fe91 95be 5f4c 98be 67f6 963e
00000050: a19b a73e 2950 4ebd 79a5 7a3e d052 86be
00000060: 2dbe debe eb71 d5be 2bec 29bf a9e7 cabd
00000070: eb0f a53e 4b8e 393d 03a4 9cbe dd1f b3bd
0.06913856 0.28082705 0.2756607 0.1321392 0.19493861 0.40017143 0.62035036 0.17634135
0.21650353 0.28046575 -0.06301474 0.38933855 -0.3663894 -0.33458424 0.35268787 -0.18738963
-0.5263684 -0.29212946 -0.29745767 0.29484865 0.32735923 -0.050369415 0.24477185 -0.26235056
-0.43504468 -0.41688475 -0.6637599 -0.09907467 0.32238707 0.045301717 -0.3059388 -0.08746312
