Backend/models/trained_models/gnn_model.pth (torch, 4657 bytes, 4 tensors)

conv1.bias f4 [16]
000000 29 44 a1 bd 50 81 a1 3e 4f 30 52 be f2 90 2f be
       -0.07874329 0.3154397 -0.20526241 -0.17145136
000010 03 62 09 3f 36 89 57 be 2f 34 53 be 42 4d 07 3f
       0.5366518 -0.21048436 -0.20625375 0.5285226
000020 c4 76 a8 3e ea aa 4a 3e 42 43 d1 3e c1 e2 e3 3e
       0.3290311 0.19791761 0.40871626 0.44508937
000030 c9 4c 07 3f 20 3e 30 be 46 cb 1b be bf e9 8b be
       0.5285154 -0.17211199 -0.15214261 -0.27326772

conv1.lin.weight f4 [16, 29]
000000 3e 42 bf 3d 8c 43 08 be b3 42 ba 3e 0a 96 80 bc
       0.093388066 -0.13307017 0.36379012 -0.015696544
000010 77 e6 2d be 87 5c 3c 3e 8f 1b 95 be 1c 6e 87 3e
       -0.16982447 0.18394671 -0.29122588 0.26451194
000020 2f 5d dc bd c2 82 3c 3e da 4b c1 be 19 18 57 bd
       -0.10759961 0.18409255 -0.37753183 -0.052513216
000030 12 5b 92 3c 69 35 30 3e b1 9f 7e 3d f7 e7 36 3d
       0.017865691 0.17207874 0.062164012 0.044654813
000040 9b cc 65 be ed 37 25 be 90 16 84 bd 22 02 70 bc
       -0.22441332 -0.16134615 -0.06449616 -0.014648946
000050 8c 34 89 3e df 70 24 be ea 72 a1 bd 3b e5 af 3e
       0.26797903 -0.16058682 -0.07883246 0.34354576
000060 f8 d1 b2 3e 33 09 08 be 65 c8 5b be 83 7c 71 bd
       0.34925818 -0.13284759 -0.21463163 -0.058956634
000070 82 d0 94 3e 40 71 10 3f 8a 6a 9d be 88 63 8b 3e
       0.2906533 0.56422806 -0.30745345 0.27224374
000080 f6 47 af be 9d 31 92 3e e6 ab 97 3e 87 38 23 3e
       -0.3423459 0.28553477 0.29623336 0.15939532
000090 c6 e4 97 be 10 60 fd 3d 60 00 fc 3d 7d 9a 6e bd
       -0.29666728 0.12371838 0.12304759 -0.0582528
0000a0 ab ca e3 3d e5 6e 26 be 24 32 71 bd 89 62 1f 3e
       0.1112264 -0.1625324 -0.05888571 0.15564932
0000b0 77 2a 30 3d 2e 75 0b be a1 bc 6a be 0e 12 01 bf
       0.043009248 -0.13618919 -0.22923519 -0.50418174
0000c0 68 76 5d 3d 20 3b 8e be b4 9f 02 be bd 3a 0d bd
       0.054068 -0.27779484 -0.12756234 -0.034479845
0000d0 a0 4a c7 bd 9d fd 75 3e 8e 9e ec 3d 10 7f a2 be
       -0.097310305 0.24022527 0.115536794 -0.31737566
0000e0 31 8e 4a be 27 a9 62 3e b3 52 56 bd ac 47 06 be
       -0.19780804 0.22134839 -0.052324962 -0.13113278
0000f0 fc fe 3f bd 8e 8a 3b 3e aa 5d 07 be e8 7e 95 3b
       -0.04687403 0.18314573 -0.13219324 0.0045622475
000100 c7 37 35 3e 5d 00 e4 bd 06 93 49 bd 87 77 56 be
       0.17697059 -0.11132882 -0.049212478 -0.20944034
000110 ba b3 f2 3d 41 a6 69 be 45 a2 28 bb 41 8f 44 be
       0.11850686 -0.22817327 -0.0025731486 -0.19195272
000120 87 ce 80 bd ea 34 a6 3c 31 47 75 3c 48 19 19 3e
       -0.06289392 0.020288903 0.014970587 0.1495105
000130 cd ac 40 be e5 8f 6f 3e 98 94 ee 3d 8f ad fd 3c
       -0.18815918 0.23394735 0.11649436 0.030966548
000140 97 dd 05 3e 38 ef a3 3d 49 7c 34 3e 82 a0 33 be
       0.13072811 0.08004612 0.17625536 -0.17541698
000150 a6 26 c7 3d 58 10 7d 3d 99 d0 93 be 80 1a 9d 3d
       0.097241685 0.061783165 -0.28870085 0.0767107
000160 54 98 a8 bd f4 56 da bb 9e 7f 68 3d 8c 53 1c 3c
       -0.08232179 -0.0066631977 0.05676233 0.0095414035
000170 0c cf df bd d2 e7 b6 bd c6 e6 2d 3d cc a7 40 bd
       -0.10928163 -0.08930935 0.04245641 -0.047035024
000180 29 4d 36 bd 8e 0a 00 3e 70 d9 50 be eb ef 11 3d
       -0.04450718 0.12504026 -0.20395446 0.035629194
000190 f3 9c 6c be 53 26 e7 bd 31 0d e5 bd ec 41 4d be
       -0.23106746 -0.11286607 -0.11184157 -0.20044678
0001a0 91 6f b9 bd ce f0 0e be 95 22 31 3e 42 fe 2a be
       -0.09054483 -0.13959047 0.17298348 -0.16698554
0001b0 22 ad 93 3c 95 6f 11 be 77 94 97 bd 3b d4 14 3c
       0.018026892 -0.14202721 -0.07401364 0.009083803
0001c0 3c c9 12 be 5b f2 1c 3e c9 ba 80 3d 56 07 be bc
       -0.14334577 0.15326826 0.062856264 -0.023196857
0001d0 ba 72 29 3e 8f 92 aa bd 96 b5 c3 3d 50 e7 be be
       0.16547671 -0.08328735 0.09556119 -0.37285852
0001e0 5c 91 f8 3e a7 f5 04 be 55 ab 6d 3e de d4 fb bd
       0.485484 -0.12984334 0.23209889 -0.122964606
0001f0 86 f3 9f 3e 2c 7b 64 bd 86 7d c0 bd de fc 8c 3c
       0.3124048 -0.05578153 -0.09398942 0.01721042
000200 45 22 35 be 68 18 a8 3e d8 3d 3a be de d9 42 be
       -0.17688854 0.3283112 -0.18187654 -0.19028422
000210 e5 41 0e 3d 8b c5 a7 bc 17 c4 9d 3d 53 62 80 3e
       0.03473081 -0.020479938 0.07703417 0.25075015
000220 60 94 4c b9 b3 75 16 3e e2 9b a9 3e 53 7b 11 3e
       -0.0001951023 0.14693336 0.33126742 0.142072
000230 00 5c 06 3e fc 3d 60 3e 5b ef 70 be 7b 71 35 be
       0.13121033 0.21898645 -0.23528807 -0.1771907
000240 ab da 14 bf 44 3b 1f 3e 88 82 2b be 2d 8e 05 3e
       -0.5814616 0.15549952 -0.16749012 0.13042517
000250 b6 2f f0 3d 5c 61 b5 3b 7c 19 fc 3b 1e 5b 37 3e
       0.1172785 0.005535288 0.0076934677 0.17905852
000260 75 2d 96 be 1b 55 6b 3d 57 07 5a bd b7 fc af 3d
       -0.29331556 0.05745421 -0.053229656 0.085931234
000270 c3 b5 8e be db 6a 8a bd 06 ae 9c be 4d de 13 3d
       -0.27873048 -0.06758662 -0.3060152 0.036100674
000280 ec ca c0 bd 7b 73 da bc 5c 5d f2 3d fd 1b 85 3b
       -0.09413704 -0.026666394 0.11834213 0.0040621744
000290 86 d2 86 3d 08 7c 79 3d 4a f3 7d bd 5f 1f 02 3e
       0.06583123 0.0609093 -0.061999597 0.1270728
0002a0 ec 20 f8 3a 7f df 8b 3d 07 3f 02 be 05 1f 96 3e
       0.001893071 0.06829738 -0.12719356 0.2932054
0002b0 ab dd 33 bd 6f 65 ef 3c 67 94 81 3c d7 56 21 be
       -0.04391257 0.029223172 0.015817834 -0.15755783
0002c0 43 04 56 bd 21 b9 0a 3e 20 e7 cf bd 9f ff 99 bd
       -0.052250158 0.13547184 -0.101515055 -0.07519459
0002d0 f2 4a 42 3d 1f 5f 54 be 3b 92 a0 bd fb e2 75 be
       0.047434755 -0.20739411 -0.07840391 -0.24012367
0002e0 fb 0d 29 3e 36 75 8a be 1e 6b e3 bd c8 d8 78 be
       0.1650924 -0.2704255 -0.11104415 -0.24301445
0002f0 ca 74 01 3d d2 98 f7 bc a9 37 89 3d 41 23 0e 3e
       0.03160552 -0.030224238 0.067000695 0.13880636
000300 da 2d bc bd c8 7e 45 3e 3d a1 00 3e 8a 6a 46 be
       -0.09188433 0.19286644 0.12561508 -0.19376579
000310 40 a5 e9 3d a5 fe 0d 3d 9b 4f 29 3e ed b1 39 be
       0.11408472 0.034666676 0.16534273 -0.1813428
000320 27 c5 2e 3e 16 41 ad 3d 80 c9 f2 bd ff bb c9 3e
       0.17067395 0.0845968 -0.11854839 0.39401242
000330 01 ac fa 3e 97 ee c2 3d 48 e0 59 be f9 8f 19 3e
       0.48959354 0.09518164 -0.21276963 0.14996327
000340 72 fc d9 bd 8c 62 52 3e 58 c0 1f 3f 50 dc 41 3e
       -0.10643853 0.20545405 0.6240287 0.18931699
000350 a8 ab 85 3e 3f a7 33 be 39 f9 56 3d dd 5e 0b be
       0.26107526 -0.17544268 0.05248377 -0.13610406
000360 c3 dd 57 3e fb 20 1c 3e 9b d8 6c 3c 0f 0c c3 3d
       0.21080689 0.15246956 0.01445594 0.09523784
000370 02 f7 21 3e 93 90 88 3e 0c 9e 33 3d f3 fe d2 bd
       0.15816882 0.266728 0.043851897 -0.10302534
000380 2d 22 90 3e 18 8c 69 3d c4 01 00 be 58 d1 8d be
       0.28151074 0.05701837 -0.12500674 -0.2769878
000390 68 33 d3 bd 13 6f 9a be a0 85 01 bc 35 de 8a be
       -0.10312539 -0.30162868 -0.007905394 -0.27122656
0003a0 b0 90 57 3d ea 66 8f be 58 53 74 be 67 ca c7 be
       0.05262822 -0.28008205 -0.23859918 -0.39021608
0003b0 ab 20 5e 3e 71 8a 47 be 35 01 f1 bb 1f 7f 0b 3d
       0.2169215 -0.19486405 -0.00735488 0.03405678
0003c0 56 4a 49 3e 32 54 25 3e a5 a8 7e be be 5c 09 3e
       0.19657263 0.16145399 -0.2486902 0.13414285
0003d0 32 93 58 bd 10 ee f2 3e ca 3e 80 bd 76 bb df 3d
       -0.05287475 0.47447252 -0.06261976 0.10924427
0003e0 47 a9 cc 3e 3e 67 8c be db c8 9f be c8 8e c0 3d
       0.39972898 -0.27422518 -0.31207928 0.09402233
0003f0 ac 06 bd 3c 59 e9 a2 bd a3 29 f5 3e a4 2d 62 3b
       0.02307447 -0.07954664 0.4788333 0.0034512067

conv2.bias f4 [2]
000000 ab 3f d9 3e ab 3f d9 be
       0.42431387 -0.42431387

conv2.lin.weight f4 [2, 16]
000000 f6 7a dd 3e 87 ee 93 bd 13 7a 2d 3e 9c c8 fe 3d
       0.43257874 -0.0722323 0.16941099 0.12440607
000010 80 33 9b 3d e3 ef ce bd b7 50 47 3d 25 e2 3e bd
       0.07578182 -0.101043485 0.04866096 -0.046602387
000020 0b ae df 3d 9e 16 75 be 7f da c9 3e b0 fc f1 3e
       0.10921868 -0.23934409 0.39424512 0.47263098
000030 42 80 e3 3c 69 63 90 3c 8b 7b f2 bd af 47 9d be
       0.027771119 0.017625527 -0.1183997 -0.30718753
000040 86 db b9 3d 7c 5c f9 be 10 d5 94 3e 2e 4e 3e 3e
       0.09075074 -0.48703372 0.29068804 0.1858451
000050 89 da ec be 22 8b ad 3d ec 52 04 3e 66 55 18 bf
       -0.4626048 0.08473803 0.12922257 -0.5950531
000060 cb 4b 10 bf 1e c5 24 bf be ef 44 be ee 83 b5 3b
       -0.5636565 -0.64363277 -0.1923208 0.005539409
000070 4a 2a dc be 75 c8 fb bd b0 f0 b0 bd 6c 71 38 3e
       -0.43001014 -0.122940935 -0.086396575 0.18012017
